tomasRL/tomas_agent/model.npz (npz, 1994 bytes, 6 tensors)

l0/b f4 [10]
00000000: 0000 0000 0000 0000 0674 4839 d817 043a
00000010: 0000 0000 0000 0000 0000 0000 0000 0000
00000020: 0000 0000 0000 0000
0.0 0.0 0.00019116708 0.00050389534 0.0 0.0 0.0 0.0
0.0 0.0

l0/W f4 [10, 6]
00000000: 54c3 a4be 195d 0b3f 5ef2 babe f772 e43e
00000010: a4b6 7bbf d826 87be ff3e 7c3e ff92 c03d
00000020: 07cb 4f3e af05 a73e c797 2fbf fe68 0cbf
00000030: 9c62 02be 60a9 153d d3f6 4dbe 99e0 013f
00000040: abf0 d33d 68c4 a53c 0912 843e 64c3 d63e
00000050: 8f71 0ebf c94c aabd e53b 10bd 1af6 95bd
00000060: 801f 043f 4e48 30bf 1186 5d3e 2f79 c0be
00000070: 3a00 393d d0a4 2abf 1017 d9bd 5e12 4f3e
00000080: 7b56 b4be 732f 6d3e 4983 47bf e01b 133e
00000090: 1092 093f 22bf d03e a463 f8be 8d7e 9f3e
000000a0: 4549 febe ca2c 003f 7a8a 973d 5494 543e
000000b0: ff3a bebe 3c53 753f 1d59 e7bd c462 18be
000000c0: b942 f8be 1d01 2fbf 7050 43bd 9385 a83e
000000d0: 41aa d8bc f2ff 00bf 3617 663e 7c17 63be
000000e0: 8c3b 44bf d7a3 41bf db45 64bd f69c 203e
-0.32180274 0.5443893 -0.36513036 0.4461896 -0.9832556 -0.26396823 0.24633406 0.09403037
0.20292293 0.32621524 -0.6859097 -0.54847705 -0.12732929 0.03653848 -0.20113687 0.50733334
0.10348638 0.020235255 0.2579501 0.41945946 -0.55642027 -0.08315427 -0.03521337 -0.07322331
0.51610565 -0.6886033 0.21633174 -0.37592456 0.04516623 -0.66657734 -0.10600102 0.2022185
-0.3522223 0.23162632 -0.779347 0.14366102 0.537385 0.40770823 -0.4851352 0.31151238
-0.49665275 0.5006834 0.07399459 0.20759708 -0.37154385 0.9583013 -0.11296294 -0.14881426
-0.48488405 -0.68361074 -0.047684133 0.3291441 -0.02644837 -0.5039054 0.22469792 -0.22176927
-0.7665336 -0.75640625 -0.055730682 0.15684876

l2/b f4 [6]
00000000: 9fe2 8241 bb48 ae41 b794 8341 0000 0000
00000010: 0000 0000 0000 0000
16.360655 21.785513 16.447615 0.0 0.0 0.0

l2/W f4 [6, 10]
00000000: 745e 8441 33a7 8241 764b 83c1 1b33 8341
00000010: a770 84c1 a95c 83c1 584c 81c1 1598 85c1
00000020: 3921 8441 5c5f 85c1 b552 b041 0a71 b341
00000030: ff1b afc1 412c b041 887d b2c1 b713 b0c1
00000040: 622f afc1 bf8e b3c1 07eb b041 6f13 b1c1
00000050: 900f 8441 0b3e 8041 6a0c 86c1 8e80 8341
00000060: d7d6 82c1 3aa3 86c1 f169 84c1 6dc4 83c1
00000070: 6972 8441 b4b2 83c1 49aa 6cbe 3924 18bf
00000080: 987f 083e 80f1 53be 699a 7e3c aa62 0d3f
00000090: 0f22 c43d 983e 08bf fbb8 52bd 9d19 8dbe
000000a0: 4a26 a33e b589 863d 958c 60bc 34e8 cdbd
000000b0: fd4c 903e 8808 84bc aaaa efbc 4855 cc3e
000000c0: c5dc 933e 61f6 ce3d d94e 72be cb26 063f
000000d0: efc8 903e 03aa 4f3c 7293 d5be 80b5 153e
000000e0: bade a73e 51fc f73d 6c0f 73be 825d e1bb
16.54612 16.33164 -16.411846 16.399954 -16.555006 -16.420244 -16.162277 -16.699259
16.516222 -16.671562 22.040384 22.430195 -21.88867 22.021608 -22.311295 -22.009626
-21.898136 -22.4447 22.11476 -22.13449 16.507599 16.030294 -16.756062 16.43777
-16.354902 -16.8297 -16.55173 -16.470911 16.555864 -16.462257 -0.23111834 -0.5943027
0.13329923 -0.20697594 0.015539744 0.55228674 0.09576809 -0.5322051 -0.051445942 -0.27558604
0.3186515 0.06569234 -0.013705392 -0.10054055 0.28183737 -0.01611735 -0.029256184 0.39908814
0.2887937 0.10105587 -0.2366289 0.52402943 0.282783 0.012674811 -0.41714054 0.14620018
0.32787114 0.121086724 -0.23736352 -0.006877602

l1/b f4 [10]
00000000: 29c5 233f 7aa0 163f 5553 1dbf 966d 233f
00000010: 7374 37bf 90b1 06bf b5d3 14bf f3d2 16bf
00000020: 18b1 273f a474 4cbf
0.6397272 0.5883862 -0.6145528 0.6383909 -0.7166206 -0.5261469 -0.5813554 -0.5891563
0.655046 -0.7986548

l1/W f4 [10, 10]
00000000: 087d 783f 0427 6f3f 54ef 093f 3250 513f
00000010: e3a0 52bf 0b65 d33e 98c6 743e f7ca 0b3e
00000020: e9da 90bf 2b9c 1bbf 516b 123f 80f1 423e
00000030: c01a 4e3f cf48 493f 5886 47bf 70c0 b13e
00000040: 1765 8b3f 63bb 273f d03a 66bf 589e 0bbf
00000050: 9176 8abe bafa 1bbf b449 1cbf 5d1b 29bf
00000060: 8d8f 2b3f 6019 d2bf 6572 46bf 6c76 95be
00000070: 5604 8f3e bf6b 543f 4d5a b2be a186 cc3f
00000080: 0203 8b3f 8e83 cb3e c47d b8be 76ad be3e
00000090: 51b3 983f f9c7 593f 60fc d5be ec3b 30bf
000000a0: 61ed ecbe 885d f2be 66f7 cdbe 8c78 3abf
000000b0: de8f 903f 1b9b 3bbf bf51 edbe 1735 92be
000000c0: 11cd 623f 29cc 753f 7c00 dfbe 9967 8dbf
000000d0: 1910 6bbf a4d2 80bf 59ba 9d3e 5d89 07bf
000000e0: bd9e 2cbf 06fc cbbe 8974 773f 5ea9 c83e
000000f0: 78a0 1abf d7c2 a6bf 7076 b4bf 6b71 2ebf
00000100: 2cb5 703e 79a4 d5be e78e 27bf 95a0 49bf
00000110: 68d0 323d 2b70 093f 28b7 38bf 924d 96bf
00000120: 9d67 95be 4b1c a1be a53c 6a3f 9796 03be
00000130: fa01 84bf e777 82bf 5fcf e03e bf45 223f
00000140: 6e14 283f 90d9 323f fbdc 913f 2627 f63e
00000150: 82f4 90bf 54e7 143e bf81 2a3f cbc5 153f
00000160: 4080 53bf 4a0e 87be 413d 9bbf a80e 56bf
00000170: 0e89 7bbf 9611 7ebf 161f b23e 0a6d c7bd
00000180: d92f c4be a27c 36bf f894 f5bb 78eb 603f
0.9706578 0.9341891 0.5388081 0.81762993 -0.82276744 0.41288027 0.23903883 0.13651644
-1.1316806 -0.6078517 0.57195 0.19037437 0.8050957 0.7862672 -0.7793937 0.3471713
1.0890225 0.65520304 -0.8993349 -0.5453849 -0.27043584 -0.60929453 -0.6104996 -0.6605738
0.67015916 -1.6413994 -0.775183 -0.2919191 0.27932996 0.8297691 -0.3483452 1.5978585
1.0860293 0.39748806 -0.36033452 0.37241715 1.1929723 0.8507076 -0.4179411 -0.68841434
-0.46274856 -0.47336984 -0.40227813 -0.7284019 1.1293905 -0.7328355 -0.4635143 -0.2855613
0.88594157 0.9601465 -0.43555057 -1.104724 -0.9182144 -1.0064282 0.30806234 -0.52943975
-0.67429715 -0.39840716 0.96662194 0.39191717 -0.60401106 -1.302821 -1.4098644 -0.6814181
0.23506612 -0.41727045 -0.65452427 -0.78760654 0.043655783 0.5368678 -0.72154474 -1.1742423
-0.29180613 -0.31466898 0.91498786 -0.12850414 -1.0313103 -1.0192841 0.43908212 0.63387674
0.65656173 0.69863224 1.1395563 0.48076743 -1.1324618 0.1454137 0.66604227 0.58504933
-0.8261757 -0.2637809 -1.2128068 -0.83616114 -0.98256004 -0.99245584 0.34789342 -0.097375944
-0.38317755 -0.71283925 -0.007494565 0.87859297
