tomasRL/tomas_agent/target_model.npz (npz, 1994 bytes, 6 tensors)

l0/b f4 [10]
000000 00 00 00 00 00 00 00 00 06 74 48 39 d8 17 04 3a
       0.0 0.0 0.00019116708 0.00050389534
000010 00 00 00 00 00 00 00 00 00 00 00 00 00 00 00 00
       0.0 0.0 0.0 0.0
000020 00 00 00 00 00 00 00 00
       0.0 0.0

l0/W f4 [10, 6]
000000 54 c3 a4 be 19 5d 0b 3f 5e f2 ba be f7 72 e4 3e
       -0.32180274 0.5443893 -0.36513036 0.4461896
000010 a4 b6 7b bf d8 26 87 be ff 3e 7c 3e ff 92 c0 3d
       -0.9832556 -0.26396823 0.24633406 0.09403037
000020 07 cb 4f 3e af 05 a7 3e c7 97 2f bf fe 68 0c bf
       0.20292293 0.32621524 -0.6859097 -0.54847705
000030 9c 62 02 be 60 a9 15 3d d3 f6 4d be 99 e0 01 3f
       -0.12732929 0.03653848 -0.20113687 0.50733334
000040 ab f0 d3 3d 68 c4 a5 3c 09 12 84 3e 64 c3 d6 3e
       0.10348638 0.020235255 0.2579501 0.41945946
000050 8f 71 0e bf c9 4c aa bd e5 3b 10 bd 1a f6 95 bd
       -0.55642027 -0.08315427 -0.03521337 -0.07322331
000060 80 1f 04 3f 4e 48 30 bf 11 86 5d 3e 2f 79 c0 be
       0.51610565 -0.6886033 0.21633174 -0.37592456
000070 3a 00 39 3d d0 a4 2a bf 10 17 d9 bd 5e 12 4f 3e
       0.04516623 -0.66657734 -0.10600102 0.2022185
000080 7b 56 b4 be 73 2f 6d 3e 49 83 47 bf e0 1b 13 3e
       -0.3522223 0.23162632 -0.779347 0.14366102
000090 10 92 09 3f 22 bf d0 3e a4 63 f8 be 8d 7e 9f 3e
       0.537385 0.40770823 -0.4851352 0.31151238
0000a0 45 49 fe be ca 2c 00 3f 7a 8a 97 3d 54 94 54 3e
       -0.49665275 0.5006834 0.07399459 0.20759708
0000b0 ff 3a be be 3c 53 75 3f 1d 59 e7 bd c4 62 18 be
       -0.37154385 0.9583013 -0.11296294 -0.14881426
0000c0 b9 42 f8 be 1d 01 2f bf 70 50 43 bd 93 85 a8 3e
       -0.48488405 -0.68361074 -0.047684133 0.3291441
0000d0 41 aa d8 bc f2 ff 00 bf 36 17 66 3e 7c 17 63 be
       -0.02644837 -0.5039054 0.22469792 -0.22176927
0000e0 8c 3b 44 bf d7 a3 41 bf db 45 64 bd f6 9c 20 3e
       -0.7665336 -0.75640625 -0.055730682 0.15684876

l2/b f4 [6]
000000 09 e1 82 41 bd 46 ae 41 fa 92 83 41 00 00 00 00
       16.35988 21.78454 16.446766 0.0
000010 00 00 00 00 00 00 00 00
       0.0 0.0

l2/W f4 [6, 10]
000000 de 5c 84 41 9d a5 82 41 e0 49 83 c1 85 31 83 41
       16.545345 16.330866 -16.411072 16.39918
000010 11 6f 84 c1 13 5b 83 c1 c2 4a 81 c1 7f 96 85 c1
       -16.554232 -16.41947 -16.161503 -16.698484
000020 a3 1f 84 41 c6 5d 85 c1 b7 50 b0 41 0c 6f b3 41
       16.515448 -16.670788 22.039412 22.429222
000030 01 1a af c1 43 2a b0 41 8a 7b b2 c1 b9 11 b0 c1
       -21.887697 22.020636 -22.310322 -22.008654
000040 64 2d af c1 c1 8c b3 c1 09 e9 b0 41 71 11 b1 c1
       -21.897163 -22.443727 22.113787 -22.133516
000050 d3 0d 84 41 4e 3c 80 41 ad 0a 86 c1 d1 7e 83 41
       16.50675 16.029446 -16.755213 16.436922
000060 1a d5 82 c1 7d a1 86 c1 34 68 84 c1 b0 c2 83 c1
       -16.354053 -16.828852 -16.55088 -16.470062
000070 ac 70 84 41 f7 b0 83 c1 49 aa 6c be 39 24 18 bf
       16.555016 -16.461409 -0.23111834 -0.5943027
000080 98 7f 08 3e 80 f1 53 be 69 9a 7e 3c aa 62 0d 3f
       0.13329923 -0.20697594 0.015539744 0.55228674
000090 0f 22 c4 3d 98 3e 08 bf fb b8 52 bd 9d 19 8d be
       0.09576809 -0.5322051 -0.051445942 -0.27558604
0000a0 4a 26 a3 3e b5 89 86 3d 95 8c 60 bc 34 e8 cd bd
       0.3186515 0.06569234 -0.013705392 -0.10054055
0000b0 fd 4c 90 3e 88 08 84 bc aa aa ef bc 48 55 cc 3e
       0.28183737 -0.01611735 -0.029256184 0.39908814
0000c0 c5 dc 93 3e 61 f6 ce 3d d9 4e 72 be cb 26 06 3f
       0.2887937 0.10105587 -0.2366289 0.52402943
0000d0 ef c8 90 3e 03 aa 4f 3c 72 93 d5 be 80 b5 15 3e
       0.282783 0.012674811 -0.41714054 0.14620018
0000e0 ba de a7 3e 51 fc f7 3d 6c 0f 73 be 82 5d e1 bb
       0.32787114 0.121086724 -0.23736352 -0.006877602

l1/b f4 [10]
000000 e1 c4 23 3f 31 a0 16 3f 0e 53 1d bf 4e 6d 23 3f
       0.6397229 0.5883818 -0.61454856 0.6383866
000010 2b 74 37 bf 48 b1 06 bf 6e d3 14 bf aa d2 16 bf
       -0.71661633 -0.5261426 -0.58135116 -0.589152
000020 d0 b0 27 3f 5c 74 4c bf
       0.6550417 -0.7986505

l1/W f4 [10, 10]
000000 c0 7c 78 3f bc 26 6f 3f 0c ef 09 3f ea 4f 51 3f
       0.97065353 0.9341848 0.5388038 0.81762564
000010 9b a0 52 bf 7b 64 d3 3e 79 c5 74 3e d8 c9 0b 3e
       -0.82276314 0.41287598 0.23903455 0.13651216
000020 c5 da 90 bf e3 9b 1b bf 08 6b 12 3f 5d f0 42 3e
       -1.1316763 -0.6078474 0.57194567 0.19037004
000030 77 1a 4e 3f 86 48 49 3f 0f 86 47 bf df bf b1 3e
       0.8050913 0.78626287 -0.7793893 0.347167
000040 f3 64 8b 3f 1a bb 27 3f 87 3a 66 bf 0f 9e 0b bf
       1.0890182 0.6551987 -0.89933056 -0.54538053
000050 02 76 8a be 73 fa 1b bf 6d 49 1c bf 16 1b 29 bf
       -0.27043158 -0.6092903 -0.6104954 -0.66056955
000060 46 8f 2b 3f 3c 19 d2 bf 1e 72 46 bf dd 75 95 be
       0.6701549 -1.6413951 -0.7751788 -0.29191485
000070 c7 03 8f 3e 78 6b 54 3f dc 5a b2 be 7d 86 cc 3f
       0.2793257 0.82976484 -0.34834945 1.5978543
000080 de 02 8b 3f ff 82 cb 3e 35 7d b8 be e7 ac be 3e
       1.086025 0.3974838 -0.36033025 0.3724129
000090 2d b3 98 3f b1 c7 59 3f d1 fb d5 be a4 3b 30 bf
       1.192968 0.8507033 -0.41793683 -0.68841004
0000a0 d0 ec ec be f7 5c f2 be d5 f6 cd be 44 78 3a bf
       -0.46274424 -0.47336552 -0.4022738 -0.7283976
0000b0 ba 8f 90 3f d3 9a 3b bf 2e 51 ed be 86 34 92 be
       1.1293862 -0.7328312 -0.46350998 -0.28555697
0000c0 c9 cc 62 3f e1 cb 75 3f ed ff de be 75 67 8d bf
       0.8859373 0.9601422 -0.4355463 -1.1047198
0000d0 d1 0f 6b bf 80 d2 80 bf ca b9 9d 3e 15 89 07 bf
       -0.9182101 -1.006424 0.30805808 -0.52943546
0000e0 75 9e 2c bf 77 fb cb be 41 74 77 3f cf a8 c8 3e
       -0.67429286 -0.3984029 0.96661764 0.3919129
0000f0 31 a0 1a bf b3 c2 a6 bf 4c 76 b4 bf 24 71 2e bf
       -0.6040068 -1.3028167 -1.4098601 -0.6814139
000100 0f b4 70 3e ea a3 d5 be a0 8e 27 bf 4e a0 49 bf
       0.23506187 -0.4172662 -0.65452003 -0.7876023
000110 f4 cb 32 3d e4 6f 09 3f df b6 38 bf 6e 4d 96 bf
       0.043651536 0.53686357 -0.7215404 -1.174238
000120 0b 67 95 be b9 1b a1 be 5c 3c 6a 3f 73 95 03 be
       -0.29180178 -0.31466463 0.9149835 -0.12849979
000130 d6 01 84 bf c3 77 82 bf cd ce e0 3e 76 45 22 3f
       -1.031306 -1.0192798 0.43907776 0.6338724
000140 26 14 28 3f 48 d9 32 3f d7 dc 91 3f 96 26 f6 3e
       0.65655744 0.69862795 1.139552 0.48076314
000150 5e f4 90 bf 34 e6 14 3e 77 81 2a 3f 83 c5 15 3f
       -1.1324575 0.1454094 0.666038 0.58504504
000160 f8 7f 53 bf ba 0d 87 be 1d 3d 9b bf 60 0e 56 bf
       -0.8261714 -0.2637766 -1.2128025 -0.83615685
000170 c6 88 7b bf 4e 11 7e bf 86 1e b2 3e c9 6a c7 bd
       -0.98255575 -0.99245155 0.34788913 -0.097371645
000180 49 2f c4 be 5a 7c 36 bf 08 b9 f5 bb 30 eb 60 3f
       -0.38317326 -0.71283495 -0.007498864 0.8785887
